…
MaxPooling2D (), Conv2D ( 32 , 3 , padding = 'same' , activation = 'relu' ), MaxPooling2D (), Conv2D ( 64 , 3 , padding = 'same' , activation = 'relu' ), MaxPooling2D (), Flatten (), Dense ( 512 , activation = 'relu' ), Dense ( 1 ) ]) model . compile ( optimizer = 'adam' , loss = tf . keras . losses . BinaryCrossentropy ( from_logits = True ), metrics = [ 'accuracy' ] ) model . summary () Model: \"sequential_1\" _________________________________________________________________ Layer (type) Output Shape Param # ================================================================= conv2d_3 (Conv2D) (None, 150, 150, 16) 448 _________________________________________________________________ max_pooling2d_3 (MaxPooling2 (None, 75, 75, 16) 0 _________________________________________________________________ conv2d_4 (Conv2D) (None, 75, 75, 32) 4640 _________________________________________________________________ max_pooling2d_4 (MaxPooling2 (None, 37, 37, 32) 0 _________________________________________________________________ conv2d_5 (Conv2D) (None, 37, 37, 64) 18496 _________________________________________________________________ max_pooling2d_5 (MaxPooling2 (None, 18, 18, 64) 0 _________________________________________________________________ flatten_1 (Flatten) (None, 20736) 0 _________________________________________________________________ dense_2 (Dense) (None, 512) 10617344 _________________________________________________________________ dense_3 (Dense) (None, 1) 513 ================================================================= Total params: 10,641,441 Trainable params: 10,641,441 Non-trainable params: 0 _________________________________________________________________ history = model . fit_generator ( train_data_gen , steps_per_epoch = total_train // batch_size , epochs = epochs , validation_data = val_data_gen , validation_steps = total_val // batch_siz
…
