…
 3 , padding = 'same' , activation = 'relu' ), MaxPooling2D (), Dropout ( 0.1 ), Conv2D ( 64 , 3 , padding = 'same' , activation = 'relu' ), MaxPooling2D (), Dropout ( 0.1 ), Flatten (), Dense ( 512 , activation = 'relu' ), Dense ( 1 ) ]) model . compile ( optimizer = 'adam' , loss = tf . keras . losses . BinaryCrossentropy ( from_logits = True ), metrics = [ 'accuracy' ] ) model . summary () Model: \"sequential\" _________________________________________________________________ Layer (type) Output Shape Param # ================================================================= conv2d (Conv2D) (None, 150, 150, 16) 448 _________________________________________________________________ max_pooling2d (MaxPooling2D) (None, 75, 75, 16) 0 _________________________________________________________________ dropout (Dropout) (None, 75, 75, 16) 0 _________________________________________________________________ conv2d_1 (Conv2D) (None, 75, 75, 32) 4640 _________________________________________________________________ max_pooling2d_1 (MaxPooling2 (None, 37, 37, 32) 0 _________________________________________________________________ dropout_1 (Dropout) (None, 37, 37, 32) 0 _________________________________________________________________ conv2d_2 (Conv2D) (None, 37, 37, 64) 18496 _________________________________________________________________ max_pooling2d_2 (MaxPooling2 (None, 18, 18, 64) 0 _________________________________________________________________ dropout_2 (Dropout) (None, 18, 18, 64) 0 _________________________________________________________________ flatten (Flatten) (None, 20736) 0 _________________________________________________________________ dense (Dense) (None, 512) 10617344 _________________________________________________________________ dense_1 (Dense) (None, 1) 513 ================================================================= Total params: 10,641,441 Trainable params: 10,641,441 Non-trainable params: 0 _________________________________________________________________ history = model . fit_generator ( train_data_gen , steps_per_epoch = total_val // batch_size , # total_train epochs = epochs , validation_data = val_data_gen , validation_steps = total_val 
…
